================================
	Grid Search Training Log
================================

(Run 0) - Training with parameters: Quantization Factor=1, Parameter Range=(-5, 5), Param Fraction=0.5, Max Iterations=1000, Target Loss=0.001

Model: Sequential(
  (0): Linear(in_features=1, out_features=4, bias=True)
  (1): ReLU()
  (2): Linear(in_features=4, out_features=4, bias=True)
  (3): ReLU()
  (4): Linear(in_features=4, out_features=1, bias=True)
  (5): Tanh()
)

(Run 0) - Best Loss: 0.3871892988681793
(Run 0) - Training Time: 45.0311 seconds

(Run 0) - Training completed.

------------------------------------------------------------------------------------------------------------------------------------------------------

(Run 1) - Training with parameters: Quantization Factor=1, Parameter Range=(-5, 5), Param Fraction=0.5, Max Iterations=1000, Target Loss=0.001

Model: Sequential(
  (0): Linear(in_features=1, out_features=4, bias=True)
  (1): ReLU()
  (2): Linear(in_features=4, out_features=4, bias=True)
  (3): ReLU()
  (4): Linear(in_features=4, out_features=1, bias=True)
  (5): Tanh()
)

(Run 1) - Best Loss: 0.390616774559021
(Run 1) - Training Time: 43.3025 seconds

(Run 1) - Training completed.

------------------------------------------------------------------------------------------------------------------------------------------------------

(Run 0) - Training with parameters: Quantization Factor=1, Parameter Range=(-5, 5), Param Fraction=0.5, Max Iterations=5000, Target Loss=0.001

Model: Sequential(
  (0): Linear(in_features=1, out_features=4, bias=True)
  (1): ReLU()
  (2): Linear(in_features=4, out_features=4, bias=True)
  (3): ReLU()
  (4): Linear(in_features=4, out_features=1, bias=True)
  (5): Tanh()
)

(Run 0) - Best Loss: 0.3880307674407959
(Run 0) - Training Time: 218.9009 seconds

(Run 0) - Training completed.

------------------------------------------------------------------------------------------------------------------------------------------------------

(Run 1) - Training with parameters: Quantization Factor=1, Parameter Range=(-5, 5), Param Fraction=0.5, Max Iterations=5000, Target Loss=0.001

Model: Sequential(
  (0): Linear(in_features=1, out_features=4, bias=True)
  (1): ReLU()
  (2): Linear(in_features=4, out_features=4, bias=True)
  (3): ReLU()
  (4): Linear(in_features=4, out_features=1, bias=True)
  (5): Tanh()
)

(Run 1) - Best Loss: 0.41877853870391846
(Run 1) - Training Time: 218.5920 seconds

(Run 1) - Training completed.

------------------------------------------------------------------------------------------------------------------------------------------------------

(Run 0) - Training with parameters: Quantization Factor=1, Parameter Range=(-5, 5), Param Fraction=0.5, Max Iterations=10000, Target Loss=0.001

Model: Sequential(
  (0): Linear(in_features=1, out_features=4, bias=True)
  (1): ReLU()
  (2): Linear(in_features=4, out_features=4, bias=True)
  (3): ReLU()
  (4): Linear(in_features=4, out_features=1, bias=True)
  (5): Tanh()
)

(Run 0) - Best Loss: 0.3871315121650696
(Run 0) - Training Time: 433.7232 seconds

(Run 0) - Training completed.

------------------------------------------------------------------------------------------------------------------------------------------------------

(Run 1) - Training with parameters: Quantization Factor=1, Parameter Range=(-5, 5), Param Fraction=0.5, Max Iterations=10000, Target Loss=0.001

Model: Sequential(
  (0): Linear(in_features=1, out_features=4, bias=True)
  (1): ReLU()
  (2): Linear(in_features=4, out_features=4, bias=True)
  (3): ReLU()
  (4): Linear(in_features=4, out_features=1, bias=True)
  (5): Tanh()
)

(Run 1) - Best Loss: 0.38915857672691345
(Run 1) - Training Time: 426.2169 seconds

(Run 1) - Training completed.

------------------------------------------------------------------------------------------------------------------------------------------------------

(Run 0) - Training with parameters: Quantization Factor=1, Parameter Range=(-5, 5), Param Fraction=1.0, Max Iterations=1000, Target Loss=0.001

Model: Sequential(
  (0): Linear(in_features=1, out_features=4, bias=True)
  (1): ReLU()
  (2): Linear(in_features=4, out_features=4, bias=True)
  (3): ReLU()
  (4): Linear(in_features=4, out_features=1, bias=True)
  (5): Tanh()
)

(Run 0) - Best Loss: 0.3883702754974365
(Run 0) - Training Time: 80.4301 seconds

(Run 0) - Training completed.

------------------------------------------------------------------------------------------------------------------------------------------------------

(Run 1) - Training with parameters: Quantization Factor=1, Parameter Range=(-5, 5), Param Fraction=1.0, Max Iterations=1000, Target Loss=0.001

Model: Sequential(
  (0): Linear(in_features=1, out_features=4, bias=True)
  (1): ReLU()
  (2): Linear(in_features=4, out_features=4, bias=True)
  (3): ReLU()
  (4): Linear(in_features=4, out_features=1, bias=True)
  (5): Tanh()
)

(Run 1) - Best Loss: 0.3883702754974365
(Run 1) - Training Time: 82.0385 seconds

(Run 1) - Training completed.

------------------------------------------------------------------------------------------------------------------------------------------------------

(Run 0) - Training with parameters: Quantization Factor=1, Parameter Range=(-5, 5), Param Fraction=1.0, Max Iterations=5000, Target Loss=0.001

Model: Sequential(
  (0): Linear(in_features=1, out_features=4, bias=True)
  (1): ReLU()
  (2): Linear(in_features=4, out_features=4, bias=True)
  (3): ReLU()
  (4): Linear(in_features=4, out_features=1, bias=True)
  (5): Tanh()
)

(Run 0) - Best Loss: 0.3880307674407959
(Run 0) - Training Time: 415.3501 seconds

(Run 0) - Training completed.

------------------------------------------------------------------------------------------------------------------------------------------------------

(Run 1) - Training with parameters: Quantization Factor=1, Parameter Range=(-5, 5), Param Fraction=1.0, Max Iterations=5000, Target Loss=0.001

Model: Sequential(
  (0): Linear(in_features=1, out_features=4, bias=True)
  (1): ReLU()
  (2): Linear(in_features=4, out_features=4, bias=True)
  (3): ReLU()
  (4): Linear(in_features=4, out_features=1, bias=True)
  (5): Tanh()
)

(Run 1) - Best Loss: 0.3880307674407959
(Run 1) - Training Time: 413.9723 seconds

(Run 1) - Training completed.

------------------------------------------------------------------------------------------------------------------------------------------------------

(Run 0) - Training with parameters: Quantization Factor=1, Parameter Range=(-5, 5), Param Fraction=1.0, Max Iterations=10000, Target Loss=0.001

Model: Sequential(
  (0): Linear(in_features=1, out_features=4, bias=True)
  (1): ReLU()
  (2): Linear(in_features=4, out_features=4, bias=True)
  (3): ReLU()
  (4): Linear(in_features=4, out_features=1, bias=True)
  (5): Tanh()
)

(Run 0) - Best Loss: 0.3880240321159363
(Run 0) - Training Time: 840.2302 seconds

(Run 0) - Training completed.

------------------------------------------------------------------------------------------------------------------------------------------------------

(Run 1) - Training with parameters: Quantization Factor=1, Parameter Range=(-5, 5), Param Fraction=1.0, Max Iterations=10000, Target Loss=0.001

Model: Sequential(
  (0): Linear(in_features=1, out_features=4, bias=True)
  (1): ReLU()
  (2): Linear(in_features=4, out_features=4, bias=True)
  (3): ReLU()
  (4): Linear(in_features=4, out_features=1, bias=True)
  (5): Tanh()
)

(Run 1) - Best Loss: 0.3866930902004242
(Run 1) - Training Time: 865.2544 seconds

(Run 1) - Training completed.

------------------------------------------------------------------------------------------------------------------------------------------------------

(Run 0) - Training with parameters: Quantization Factor=1, Parameter Range=(-10, 10), Param Fraction=0.5, Max Iterations=1000, Target Loss=0.001

Model: Sequential(
  (0): Linear(in_features=1, out_features=4, bias=True)
  (1): ReLU()
  (2): Linear(in_features=4, out_features=4, bias=True)
  (3): ReLU()
  (4): Linear(in_features=4, out_features=1, bias=True)
  (5): Tanh()
)

(Run 0) - Best Loss: 0.3880470395088196
(Run 0) - Training Time: 41.3091 seconds

(Run 0) - Training completed.

------------------------------------------------------------------------------------------------------------------------------------------------------

(Run 1) - Training with parameters: Quantization Factor=1, Parameter Range=(-10, 10), Param Fraction=0.5, Max Iterations=1000, Target Loss=0.001

Model: Sequential(
  (0): Linear(in_features=1, out_features=4, bias=True)
  (1): ReLU()
  (2): Linear(in_features=4, out_features=4, bias=True)
  (3): ReLU()
  (4): Linear(in_features=4, out_features=1, bias=True)
  (5): Tanh()
)

(Run 1) - Best Loss: 0.390616774559021
(Run 1) - Training Time: 43.9379 seconds

(Run 1) - Training completed.

------------------------------------------------------------------------------------------------------------------------------------------------------

(Run 0) - Training with parameters: Quantization Factor=1, Parameter Range=(-10, 10), Param Fraction=0.5, Max Iterations=5000, Target Loss=0.001

Model: Sequential(
  (0): Linear(in_features=1, out_features=4, bias=True)
  (1): ReLU()
  (2): Linear(in_features=4, out_features=4, bias=True)
  (3): ReLU()
  (4): Linear(in_features=4, out_features=1, bias=True)
  (5): Tanh()
)

(Run 0) - Best Loss: 0.3880354166030884
(Run 0) - Training Time: 228.8911 seconds

(Run 0) - Training completed.

------------------------------------------------------------------------------------------------------------------------------------------------------

(Run 1) - Training with parameters: Quantization Factor=1, Parameter Range=(-10, 10), Param Fraction=0.5, Max Iterations=5000, Target Loss=0.001

Model: Sequential(
  (0): Linear(in_features=1, out_features=4, bias=True)
  (1): ReLU()
  (2): Linear(in_features=4, out_features=4, bias=True)
  (3): ReLU()
  (4): Linear(in_features=4, out_features=1, bias=True)
  (5): Tanh()
)

(Run 1) - Best Loss: 0.39059191942214966
(Run 1) - Training Time: 227.9361 seconds

(Run 1) - Training completed.

------------------------------------------------------------------------------------------------------------------------------------------------------

(Run 0) - Training with parameters: Quantization Factor=1, Parameter Range=(-10, 10), Param Fraction=0.5, Max Iterations=10000, Target Loss=0.001

Model: Sequential(
  (0): Linear(in_features=1, out_features=4, bias=True)
  (1): ReLU()
  (2): Linear(in_features=4, out_features=4, bias=True)
  (3): ReLU()
  (4): Linear(in_features=4, out_features=1, bias=True)
  (5): Tanh()
)

(Run 0) - Best Loss: 0.38774245977401733
(Run 0) - Training Time: 454.7305 seconds

(Run 0) - Training completed.

------------------------------------------------------------------------------------------------------------------------------------------------------

(Run 1) - Training with parameters: Quantization Factor=1, Parameter Range=(-10, 10), Param Fraction=0.5, Max Iterations=10000, Target Loss=0.001

Model: Sequential(
  (0): Linear(in_features=1, out_features=4, bias=True)
  (1): ReLU()
  (2): Linear(in_features=4, out_features=4, bias=True)
  (3): ReLU()
  (4): Linear(in_features=4, out_features=1, bias=True)
  (5): Tanh()
)

(Run 1) - Best Loss: 0.3866365849971771
(Run 1) - Training Time: 455.4774 seconds

(Run 1) - Training completed.

------------------------------------------------------------------------------------------------------------------------------------------------------

(Run 0) - Training with parameters: Quantization Factor=1, Parameter Range=(-10, 10), Param Fraction=1.0, Max Iterations=1000, Target Loss=0.001

Model: Sequential(
  (0): Linear(in_features=1, out_features=4, bias=True)
  (1): ReLU()
  (2): Linear(in_features=4, out_features=4, bias=True)
  (3): ReLU()
  (4): Linear(in_features=4, out_features=1, bias=True)
  (5): Tanh()
)

(Run 0) - Best Loss: 0.4010114073753357
(Run 0) - Training Time: 80.0443 seconds

(Run 0) - Training completed.

------------------------------------------------------------------------------------------------------------------------------------------------------

(Run 1) - Training with parameters: Quantization Factor=1, Parameter Range=(-10, 10), Param Fraction=1.0, Max Iterations=1000, Target Loss=0.001

Model: Sequential(
  (0): Linear(in_features=1, out_features=4, bias=True)
  (1): ReLU()
  (2): Linear(in_features=4, out_features=4, bias=True)
  (3): ReLU()
  (4): Linear(in_features=4, out_features=1, bias=True)
  (5): Tanh()
)

(Run 1) - Best Loss: 0.3880470395088196
(Run 1) - Training Time: 87.9181 seconds

(Run 1) - Training completed.

------------------------------------------------------------------------------------------------------------------------------------------------------

(Run 0) - Training with parameters: Quantization Factor=1, Parameter Range=(-10, 10), Param Fraction=1.0, Max Iterations=5000, Target Loss=0.001

Model: Sequential(
  (0): Linear(in_features=1, out_features=4, bias=True)
  (1): ReLU()
  (2): Linear(in_features=4, out_features=4, bias=True)
  (3): ReLU()
  (4): Linear(in_features=4, out_features=1, bias=True)
  (5): Tanh()
)

(Run 0) - Best Loss: 0.3880307674407959
(Run 0) - Training Time: 434.0072 seconds

(Run 0) - Training completed.

------------------------------------------------------------------------------------------------------------------------------------------------------

(Run 1) - Training with parameters: Quantization Factor=1, Parameter Range=(-10, 10), Param Fraction=1.0, Max Iterations=5000, Target Loss=0.001

Model: Sequential(
  (0): Linear(in_features=1, out_features=4, bias=True)
  (1): ReLU()
  (2): Linear(in_features=4, out_features=4, bias=True)
  (3): ReLU()
  (4): Linear(in_features=4, out_features=1, bias=True)
  (5): Tanh()
)

(Run 1) - Best Loss: 0.3880307674407959
(Run 1) - Training Time: 436.8667 seconds

(Run 1) - Training completed.

------------------------------------------------------------------------------------------------------------------------------------------------------

(Run 0) - Training with parameters: Quantization Factor=1, Parameter Range=(-10, 10), Param Fraction=1.0, Max Iterations=10000, Target Loss=0.001

Model: Sequential(
  (0): Linear(in_features=1, out_features=4, bias=True)
  (1): ReLU()
  (2): Linear(in_features=4, out_features=4, bias=True)
  (3): ReLU()
  (4): Linear(in_features=4, out_features=1, bias=True)
  (5): Tanh()
)

(Run 0) - Best Loss: 0.38663342595100403
(Run 0) - Training Time: 893.1157 seconds

(Run 0) - Training completed.

------------------------------------------------------------------------------------------------------------------------------------------------------

(Run 1) - Training with parameters: Quantization Factor=1, Parameter Range=(-10, 10), Param Fraction=1.0, Max Iterations=10000, Target Loss=0.001

Model: Sequential(
  (0): Linear(in_features=1, out_features=4, bias=True)
  (1): ReLU()
  (2): Linear(in_features=4, out_features=4, bias=True)
  (3): ReLU()
  (4): Linear(in_features=4, out_features=1, bias=True)
  (5): Tanh()
)

(Run 1) - Best Loss: 0.38802140951156616
(Run 1) - Training Time: 883.1344 seconds

(Run 1) - Training completed.

------------------------------------------------------------------------------------------------------------------------------------------------------

(Run 0) - Training with parameters: Quantization Factor=10, Parameter Range=(-5, 5), Param Fraction=0.5, Max Iterations=1000, Target Loss=0.001

Model: Sequential(
  (0): Linear(in_features=1, out_features=4, bias=True)
  (1): ReLU()
  (2): Linear(in_features=4, out_features=4, bias=True)
  (3): ReLU()
  (4): Linear(in_features=4, out_features=1, bias=True)
  (5): Tanh()
)

(Run 0) - Best Loss: 0.4406701624393463
(Run 0) - Training Time: 41.4056 seconds

(Run 0) - Training completed.

------------------------------------------------------------------------------------------------------------------------------------------------------

(Run 1) - Training with parameters: Quantization Factor=10, Parameter Range=(-5, 5), Param Fraction=0.5, Max Iterations=1000, Target Loss=0.001

Model: Sequential(
  (0): Linear(in_features=1, out_features=4, bias=True)
  (1): ReLU()
  (2): Linear(in_features=4, out_features=4, bias=True)
  (3): ReLU()
  (4): Linear(in_features=4, out_features=1, bias=True)
  (5): Tanh()
)

(Run 1) - Best Loss: 0.4404091536998749
(Run 1) - Training Time: 41.0558 seconds

(Run 1) - Training completed.

------------------------------------------------------------------------------------------------------------------------------------------------------

(Run 0) - Training with parameters: Quantization Factor=10, Parameter Range=(-5, 5), Param Fraction=0.5, Max Iterations=5000, Target Loss=0.001

Model: Sequential(
  (0): Linear(in_features=1, out_features=4, bias=True)
  (1): ReLU()
  (2): Linear(in_features=4, out_features=4, bias=True)
  (3): ReLU()
  (4): Linear(in_features=4, out_features=1, bias=True)
  (5): Tanh()
)

(Run 0) - Best Loss: 0.3521888256072998
(Run 0) - Training Time: 228.7356 seconds

(Run 0) - Training completed.

------------------------------------------------------------------------------------------------------------------------------------------------------

(Run 1) - Training with parameters: Quantization Factor=10, Parameter Range=(-5, 5), Param Fraction=0.5, Max Iterations=5000, Target Loss=0.001

Model: Sequential(
  (0): Linear(in_features=1, out_features=4, bias=True)
  (1): ReLU()
  (2): Linear(in_features=4, out_features=4, bias=True)
  (3): ReLU()
  (4): Linear(in_features=4, out_features=1, bias=True)
  (5): Tanh()
)

(Run 1) - Best Loss: 0.36995089054107666
(Run 1) - Training Time: 221.4911 seconds

(Run 1) - Training completed.

------------------------------------------------------------------------------------------------------------------------------------------------------

(Run 0) - Training with parameters: Quantization Factor=10, Parameter Range=(-5, 5), Param Fraction=0.5, Max Iterations=10000, Target Loss=0.001

Model: Sequential(
  (0): Linear(in_features=1, out_features=4, bias=True)
  (1): ReLU()
  (2): Linear(in_features=4, out_features=4, bias=True)
  (3): ReLU()
  (4): Linear(in_features=4, out_features=1, bias=True)
  (5): Tanh()
)

(Run 0) - Best Loss: 0.20001672208309174
(Run 0) - Training Time: 426.2170 seconds

(Run 0) - Training completed.

------------------------------------------------------------------------------------------------------------------------------------------------------

(Run 1) - Training with parameters: Quantization Factor=10, Parameter Range=(-5, 5), Param Fraction=0.5, Max Iterations=10000, Target Loss=0.001

Model: Sequential(
  (0): Linear(in_features=1, out_features=4, bias=True)
  (1): ReLU()
  (2): Linear(in_features=4, out_features=4, bias=True)
  (3): ReLU()
  (4): Linear(in_features=4, out_features=1, bias=True)
  (5): Tanh()
)

(Run 1) - Best Loss: 0.3542466461658478
(Run 1) - Training Time: 448.5361 seconds

(Run 1) - Training completed.

------------------------------------------------------------------------------------------------------------------------------------------------------

(Run 0) - Training with parameters: Quantization Factor=10, Parameter Range=(-5, 5), Param Fraction=1.0, Max Iterations=1000, Target Loss=0.001

Model: Sequential(
  (0): Linear(in_features=1, out_features=4, bias=True)
  (1): ReLU()
  (2): Linear(in_features=4, out_features=4, bias=True)
  (3): ReLU()
  (4): Linear(in_features=4, out_features=1, bias=True)
  (5): Tanh()
)

(Run 0) - Best Loss: 0.4399445354938507
(Run 0) - Training Time: 84.8739 seconds

(Run 0) - Training completed.

------------------------------------------------------------------------------------------------------------------------------------------------------

(Run 1) - Training with parameters: Quantization Factor=10, Parameter Range=(-5, 5), Param Fraction=1.0, Max Iterations=1000, Target Loss=0.001

Model: Sequential(
  (0): Linear(in_features=1, out_features=4, bias=True)
  (1): ReLU()
  (2): Linear(in_features=4, out_features=4, bias=True)
  (3): ReLU()
  (4): Linear(in_features=4, out_features=1, bias=True)
  (5): Tanh()
)

(Run 1) - Best Loss: 0.4399445354938507
(Run 1) - Training Time: 88.1377 seconds

(Run 1) - Training completed.

------------------------------------------------------------------------------------------------------------------------------------------------------

(Run 0) - Training with parameters: Quantization Factor=10, Parameter Range=(-5, 5), Param Fraction=1.0, Max Iterations=5000, Target Loss=0.001

Model: Sequential(
  (0): Linear(in_features=1, out_features=4, bias=True)
  (1): ReLU()
  (2): Linear(in_features=4, out_features=4, bias=True)
  (3): ReLU()
  (4): Linear(in_features=4, out_features=1, bias=True)
  (5): Tanh()
)

(Run 0) - Best Loss: 0.284950852394104
(Run 0) - Training Time: 430.8954 seconds

(Run 0) - Training completed.

------------------------------------------------------------------------------------------------------------------------------------------------------

(Run 1) - Training with parameters: Quantization Factor=10, Parameter Range=(-5, 5), Param Fraction=1.0, Max Iterations=5000, Target Loss=0.001

Model: Sequential(
  (0): Linear(in_features=1, out_features=4, bias=True)
  (1): ReLU()
  (2): Linear(in_features=4, out_features=4, bias=True)
  (3): ReLU()
  (4): Linear(in_features=4, out_features=1, bias=True)
  (5): Tanh()
)

(Run 1) - Best Loss: 0.284950852394104
(Run 1) - Training Time: 434.6630 seconds

(Run 1) - Training completed.

------------------------------------------------------------------------------------------------------------------------------------------------------

(Run 0) - Training with parameters: Quantization Factor=10, Parameter Range=(-5, 5), Param Fraction=1.0, Max Iterations=10000, Target Loss=0.001

Model: Sequential(
  (0): Linear(in_features=1, out_features=4, bias=True)
  (1): ReLU()
  (2): Linear(in_features=4, out_features=4, bias=True)
  (3): ReLU()
  (4): Linear(in_features=4, out_features=1, bias=True)
  (5): Tanh()
)

(Run 0) - Best Loss: 0.3569284975528717
(Run 0) - Training Time: 803.0693 seconds

(Run 0) - Training completed.

------------------------------------------------------------------------------------------------------------------------------------------------------

(Run 1) - Training with parameters: Quantization Factor=10, Parameter Range=(-5, 5), Param Fraction=1.0, Max Iterations=10000, Target Loss=0.001

Model: Sequential(
  (0): Linear(in_features=1, out_features=4, bias=True)
  (1): ReLU()
  (2): Linear(in_features=4, out_features=4, bias=True)
  (3): ReLU()
  (4): Linear(in_features=4, out_features=1, bias=True)
  (5): Tanh()
)

(Run 1) - Best Loss: 0.3569284975528717
(Run 1) - Training Time: 803.3625 seconds

(Run 1) - Training completed.

------------------------------------------------------------------------------------------------------------------------------------------------------

(Run 0) - Training with parameters: Quantization Factor=10, Parameter Range=(-10, 10), Param Fraction=0.5, Max Iterations=1000, Target Loss=0.001

Model: Sequential(
  (0): Linear(in_features=1, out_features=4, bias=True)
  (1): ReLU()
  (2): Linear(in_features=4, out_features=4, bias=True)
  (3): ReLU()
  (4): Linear(in_features=4, out_features=1, bias=True)
  (5): Tanh()
)

(Run 0) - Best Loss: 0.4412928521633148
(Run 0) - Training Time: 42.1407 seconds

(Run 0) - Training completed.

------------------------------------------------------------------------------------------------------------------------------------------------------

(Run 1) - Training with parameters: Quantization Factor=10, Parameter Range=(-10, 10), Param Fraction=0.5, Max Iterations=1000, Target Loss=0.001

Model: Sequential(
  (0): Linear(in_features=1, out_features=4, bias=True)
  (1): ReLU()
  (2): Linear(in_features=4, out_features=4, bias=True)
  (3): ReLU()
  (4): Linear(in_features=4, out_features=1, bias=True)
  (5): Tanh()
)

(Run 1) - Best Loss: 0.4397968351840973
(Run 1) - Training Time: 42.9889 seconds

(Run 1) - Training completed.

------------------------------------------------------------------------------------------------------------------------------------------------------

(Run 0) - Training with parameters: Quantization Factor=10, Parameter Range=(-10, 10), Param Fraction=0.5, Max Iterations=5000, Target Loss=0.001

Model: Sequential(
  (0): Linear(in_features=1, out_features=4, bias=True)
  (1): ReLU()
  (2): Linear(in_features=4, out_features=4, bias=True)
  (3): ReLU()
  (4): Linear(in_features=4, out_features=1, bias=True)
  (5): Tanh()
)

(Run 0) - Best Loss: 0.34402287006378174
(Run 0) - Training Time: 229.9896 seconds

(Run 0) - Training completed.

------------------------------------------------------------------------------------------------------------------------------------------------------

(Run 1) - Training with parameters: Quantization Factor=10, Parameter Range=(-10, 10), Param Fraction=0.5, Max Iterations=5000, Target Loss=0.001

Model: Sequential(
  (0): Linear(in_features=1, out_features=4, bias=True)
  (1): ReLU()
  (2): Linear(in_features=4, out_features=4, bias=True)
  (3): ReLU()
  (4): Linear(in_features=4, out_features=1, bias=True)
  (5): Tanh()
)

(Run 1) - Best Loss: 0.09627777338027954
(Run 1) - Training Time: 222.1928 seconds

(Run 1) - Training completed.

------------------------------------------------------------------------------------------------------------------------------------------------------

(Run 0) - Training with parameters: Quantization Factor=10, Parameter Range=(-10, 10), Param Fraction=0.5, Max Iterations=10000, Target Loss=0.001

Model: Sequential(
  (0): Linear(in_features=1, out_features=4, bias=True)
  (1): ReLU()
  (2): Linear(in_features=4, out_features=4, bias=True)
  (3): ReLU()
  (4): Linear(in_features=4, out_features=1, bias=True)
  (5): Tanh()
)

(Run 0) - Best Loss: 0.3036017417907715
(Run 0) - Training Time: 442.7952 seconds

(Run 0) - Training completed.

------------------------------------------------------------------------------------------------------------------------------------------------------

(Run 1) - Training with parameters: Quantization Factor=10, Parameter Range=(-10, 10), Param Fraction=0.5, Max Iterations=10000, Target Loss=0.001

Model: Sequential(
  (0): Linear(in_features=1, out_features=4, bias=True)
  (1): ReLU()
  (2): Linear(in_features=4, out_features=4, bias=True)
  (3): ReLU()
  (4): Linear(in_features=4, out_features=1, bias=True)
  (5): Tanh()
)

(Run 1) - Best Loss: 0.07904045283794403
(Run 1) - Training Time: 436.4241 seconds

(Run 1) - Training completed.

------------------------------------------------------------------------------------------------------------------------------------------------------

(Run 0) - Training with parameters: Quantization Factor=10, Parameter Range=(-10, 10), Param Fraction=1.0, Max Iterations=1000, Target Loss=0.001

Model: Sequential(
  (0): Linear(in_features=1, out_features=4, bias=True)
  (1): ReLU()
  (2): Linear(in_features=4, out_features=4, bias=True)
  (3): ReLU()
  (4): Linear(in_features=4, out_features=1, bias=True)
  (5): Tanh()
)

(Run 0) - Best Loss: 0.4399445354938507
(Run 0) - Training Time: 79.6805 seconds

(Run 0) - Training completed.

------------------------------------------------------------------------------------------------------------------------------------------------------

(Run 1) - Training with parameters: Quantization Factor=10, Parameter Range=(-10, 10), Param Fraction=1.0, Max Iterations=1000, Target Loss=0.001

Model: Sequential(
  (0): Linear(in_features=1, out_features=4, bias=True)
  (1): ReLU()
  (2): Linear(in_features=4, out_features=4, bias=True)
  (3): ReLU()
  (4): Linear(in_features=4, out_features=1, bias=True)
  (5): Tanh()
)

(Run 1) - Best Loss: 0.4399445354938507
(Run 1) - Training Time: 87.0516 seconds

(Run 1) - Training completed.

------------------------------------------------------------------------------------------------------------------------------------------------------

(Run 0) - Training with parameters: Quantization Factor=10, Parameter Range=(-10, 10), Param Fraction=1.0, Max Iterations=5000, Target Loss=0.001

Model: Sequential(
  (0): Linear(in_features=1, out_features=4, bias=True)
  (1): ReLU()
  (2): Linear(in_features=4, out_features=4, bias=True)
  (3): ReLU()
  (4): Linear(in_features=4, out_features=1, bias=True)
  (5): Tanh()
)

(Run 0) - Best Loss: 0.17071038484573364
(Run 0) - Training Time: 424.9117 seconds

(Run 0) - Training completed.

------------------------------------------------------------------------------------------------------------------------------------------------------

(Run 1) - Training with parameters: Quantization Factor=10, Parameter Range=(-10, 10), Param Fraction=1.0, Max Iterations=5000, Target Loss=0.001

Model: Sequential(
  (0): Linear(in_features=1, out_features=4, bias=True)
  (1): ReLU()
  (2): Linear(in_features=4, out_features=4, bias=True)
  (3): ReLU()
  (4): Linear(in_features=4, out_features=1, bias=True)
  (5): Tanh()
)

(Run 1) - Best Loss: 0.17071038484573364
(Run 1) - Training Time: 426.5753 seconds

(Run 1) - Training completed.

------------------------------------------------------------------------------------------------------------------------------------------------------

(Run 0) - Training with parameters: Quantization Factor=10, Parameter Range=(-10, 10), Param Fraction=1.0, Max Iterations=10000, Target Loss=0.001

Model: Sequential(
  (0): Linear(in_features=1, out_features=4, bias=True)
  (1): ReLU()
  (2): Linear(in_features=4, out_features=4, bias=True)
  (3): ReLU()
  (4): Linear(in_features=4, out_features=1, bias=True)
  (5): Tanh()
)

(Run 0) - Best Loss: 0.3522146940231323
(Run 0) - Training Time: 841.1895 seconds

(Run 0) - Training completed.

------------------------------------------------------------------------------------------------------------------------------------------------------

(Run 1) - Training with parameters: Quantization Factor=10, Parameter Range=(-10, 10), Param Fraction=1.0, Max Iterations=10000, Target Loss=0.001

Model: Sequential(
  (0): Linear(in_features=1, out_features=4, bias=True)
  (1): ReLU()
  (2): Linear(in_features=4, out_features=4, bias=True)
  (3): ReLU()
  (4): Linear(in_features=4, out_features=1, bias=True)
  (5): Tanh()
)

(Run 1) - Best Loss: 0.35511788725852966
(Run 1) - Training Time: 849.1880 seconds

(Run 1) - Training completed.

------------------------------------------------------------------------------------------------------------------------------------------------------

(Run 0) - Training with parameters: Quantization Factor=100, Parameter Range=(-5, 5), Param Fraction=0.5, Max Iterations=1000, Target Loss=0.001

Model: Sequential(
  (0): Linear(in_features=1, out_features=4, bias=True)
  (1): ReLU()
  (2): Linear(in_features=4, out_features=4, bias=True)
  (3): ReLU()
  (4): Linear(in_features=4, out_features=1, bias=True)
  (5): Tanh()
)

(Run 0) - Best Loss: 0.5092819929122925
(Run 0) - Training Time: 42.7287 seconds

(Run 0) - Training completed.

------------------------------------------------------------------------------------------------------------------------------------------------------

(Run 1) - Training with parameters: Quantization Factor=100, Parameter Range=(-5, 5), Param Fraction=0.5, Max Iterations=1000, Target Loss=0.001

Model: Sequential(
  (0): Linear(in_features=1, out_features=4, bias=True)
  (1): ReLU()
  (2): Linear(in_features=4, out_features=4, bias=True)
  (3): ReLU()
  (4): Linear(in_features=4, out_features=1, bias=True)
  (5): Tanh()
)

(Run 1) - Best Loss: 0.5092819929122925
(Run 1) - Training Time: 44.6407 seconds

(Run 1) - Training completed.

------------------------------------------------------------------------------------------------------------------------------------------------------

(Run 0) - Training with parameters: Quantization Factor=100, Parameter Range=(-5, 5), Param Fraction=0.5, Max Iterations=5000, Target Loss=0.001

Model: Sequential(
  (0): Linear(in_features=1, out_features=4, bias=True)
  (1): ReLU()
  (2): Linear(in_features=4, out_features=4, bias=True)
  (3): ReLU()
  (4): Linear(in_features=4, out_features=1, bias=True)
  (5): Tanh()
)

(Run 0) - Best Loss: 0.439649373292923
(Run 0) - Training Time: 225.4487 seconds

(Run 0) - Training completed.

------------------------------------------------------------------------------------------------------------------------------------------------------

(Run 1) - Training with parameters: Quantization Factor=100, Parameter Range=(-5, 5), Param Fraction=0.5, Max Iterations=5000, Target Loss=0.001

Model: Sequential(
  (0): Linear(in_features=1, out_features=4, bias=True)
  (1): ReLU()
  (2): Linear(in_features=4, out_features=4, bias=True)
  (3): ReLU()
  (4): Linear(in_features=4, out_features=1, bias=True)
  (5): Tanh()
)

(Run 1) - Best Loss: 0.4397200644016266
(Run 1) - Training Time: 221.4414 seconds

(Run 1) - Training completed.

------------------------------------------------------------------------------------------------------------------------------------------------------

(Run 0) - Training with parameters: Quantization Factor=100, Parameter Range=(-5, 5), Param Fraction=0.5, Max Iterations=10000, Target Loss=0.001

Model: Sequential(
  (0): Linear(in_features=1, out_features=4, bias=True)
  (1): ReLU()
  (2): Linear(in_features=4, out_features=4, bias=True)
  (3): ReLU()
  (4): Linear(in_features=4, out_features=1, bias=True)
  (5): Tanh()
)

(Run 0) - Best Loss: 0.43962109088897705
(Run 0) - Training Time: 448.5261 seconds

(Run 0) - Training completed.

------------------------------------------------------------------------------------------------------------------------------------------------------

(Run 1) - Training with parameters: Quantization Factor=100, Parameter Range=(-5, 5), Param Fraction=0.5, Max Iterations=10000, Target Loss=0.001

Model: Sequential(
  (0): Linear(in_features=1, out_features=4, bias=True)
  (1): ReLU()
  (2): Linear(in_features=4, out_features=4, bias=True)
  (3): ReLU()
  (4): Linear(in_features=4, out_features=1, bias=True)
  (5): Tanh()
)

(Run 1) - Best Loss: 0.4396517872810364
(Run 1) - Training Time: 441.5771 seconds

(Run 1) - Training completed.

------------------------------------------------------------------------------------------------------------------------------------------------------

(Run 0) - Training with parameters: Quantization Factor=100, Parameter Range=(-5, 5), Param Fraction=1.0, Max Iterations=1000, Target Loss=0.001

Model: Sequential(
  (0): Linear(in_features=1, out_features=4, bias=True)
  (1): ReLU()
  (2): Linear(in_features=4, out_features=4, bias=True)
  (3): ReLU()
  (4): Linear(in_features=4, out_features=1, bias=True)
  (5): Tanh()
)

(Run 0) - Best Loss: 0.5094814300537109
(Run 0) - Training Time: 85.6409 seconds

(Run 0) - Training completed.

------------------------------------------------------------------------------------------------------------------------------------------------------

(Run 1) - Training with parameters: Quantization Factor=100, Parameter Range=(-5, 5), Param Fraction=1.0, Max Iterations=1000, Target Loss=0.001

Model: Sequential(
  (0): Linear(in_features=1, out_features=4, bias=True)
  (1): ReLU()
  (2): Linear(in_features=4, out_features=4, bias=True)
  (3): ReLU()
  (4): Linear(in_features=4, out_features=1, bias=True)
  (5): Tanh()
)

(Run 1) - Best Loss: 0.5094814300537109
(Run 1) - Training Time: 88.0493 seconds

(Run 1) - Training completed.

------------------------------------------------------------------------------------------------------------------------------------------------------

(Run 0) - Training with parameters: Quantization Factor=100, Parameter Range=(-5, 5), Param Fraction=1.0, Max Iterations=5000, Target Loss=0.001

Model: Sequential(
  (0): Linear(in_features=1, out_features=4, bias=True)
  (1): ReLU()
  (2): Linear(in_features=4, out_features=4, bias=True)
  (3): ReLU()
  (4): Linear(in_features=4, out_features=1, bias=True)
  (5): Tanh()
)

(Run 0) - Best Loss: 0.4396550953388214
(Run 0) - Training Time: 441.4510 seconds

(Run 0) - Training completed.

------------------------------------------------------------------------------------------------------------------------------------------------------

(Run 1) - Training with parameters: Quantization Factor=100, Parameter Range=(-5, 5), Param Fraction=1.0, Max Iterations=5000, Target Loss=0.001

Model: Sequential(
  (0): Linear(in_features=1, out_features=4, bias=True)
  (1): ReLU()
  (2): Linear(in_features=4, out_features=4, bias=True)
  (3): ReLU()
  (4): Linear(in_features=4, out_features=1, bias=True)
  (5): Tanh()
)

(Run 1) - Best Loss: 0.4396550953388214
(Run 1) - Training Time: 431.8103 seconds

(Run 1) - Training completed.

------------------------------------------------------------------------------------------------------------------------------------------------------

(Run 0) - Training with parameters: Quantization Factor=100, Parameter Range=(-5, 5), Param Fraction=1.0, Max Iterations=10000, Target Loss=0.001

Model: Sequential(
  (0): Linear(in_features=1, out_features=4, bias=True)
  (1): ReLU()
  (2): Linear(in_features=4, out_features=4, bias=True)
  (3): ReLU()
  (4): Linear(in_features=4, out_features=1, bias=True)
  (5): Tanh()
)

(Run 0) - Best Loss: 0.43961620330810547
(Run 0) - Training Time: 875.9911 seconds

(Run 0) - Training completed.

------------------------------------------------------------------------------------------------------------------------------------------------------

(Run 1) - Training with parameters: Quantization Factor=100, Parameter Range=(-5, 5), Param Fraction=1.0, Max Iterations=10000, Target Loss=0.001

Model: Sequential(
  (0): Linear(in_features=1, out_features=4, bias=True)
  (1): ReLU()
  (2): Linear(in_features=4, out_features=4, bias=True)
  (3): ReLU()
  (4): Linear(in_features=4, out_features=1, bias=True)
  (5): Tanh()
)

(Run 1) - Best Loss: 0.43961620330810547
(Run 1) - Training Time: 875.5578 seconds

(Run 1) - Training completed.

------------------------------------------------------------------------------------------------------------------------------------------------------

(Run 0) - Training with parameters: Quantization Factor=100, Parameter Range=(-10, 10), Param Fraction=0.5, Max Iterations=1000, Target Loss=0.001

Model: Sequential(
  (0): Linear(in_features=1, out_features=4, bias=True)
  (1): ReLU()
  (2): Linear(in_features=4, out_features=4, bias=True)
  (3): ReLU()
  (4): Linear(in_features=4, out_features=1, bias=True)
  (5): Tanh()
)

(Run 0) - Best Loss: 0.5092819929122925
(Run 0) - Training Time: 40.0613 seconds

(Run 0) - Training completed.

------------------------------------------------------------------------------------------------------------------------------------------------------

(Run 1) - Training with parameters: Quantization Factor=100, Parameter Range=(-10, 10), Param Fraction=0.5, Max Iterations=1000, Target Loss=0.001

Model: Sequential(
  (0): Linear(in_features=1, out_features=4, bias=True)
  (1): ReLU()
  (2): Linear(in_features=4, out_features=4, bias=True)
  (3): ReLU()
  (4): Linear(in_features=4, out_features=1, bias=True)
  (5): Tanh()
)

(Run 1) - Best Loss: 0.5092819929122925
(Run 1) - Training Time: 39.2592 seconds

(Run 1) - Training completed.

------------------------------------------------------------------------------------------------------------------------------------------------------

(Run 0) - Training with parameters: Quantization Factor=100, Parameter Range=(-10, 10), Param Fraction=0.5, Max Iterations=5000, Target Loss=0.001

Model: Sequential(
  (0): Linear(in_features=1, out_features=4, bias=True)
  (1): ReLU()
  (2): Linear(in_features=4, out_features=4, bias=True)
  (3): ReLU()
  (4): Linear(in_features=4, out_features=1, bias=True)
  (5): Tanh()
)

(Run 0) - Best Loss: 0.4396745562553406
(Run 0) - Training Time: 222.2407 seconds

(Run 0) - Training completed.

------------------------------------------------------------------------------------------------------------------------------------------------------

(Run 1) - Training with parameters: Quantization Factor=100, Parameter Range=(-10, 10), Param Fraction=0.5, Max Iterations=5000, Target Loss=0.001

Model: Sequential(
  (0): Linear(in_features=1, out_features=4, bias=True)
  (1): ReLU()
  (2): Linear(in_features=4, out_features=4, bias=True)
  (3): ReLU()
  (4): Linear(in_features=4, out_features=1, bias=True)
  (5): Tanh()
)

(Run 1) - Best Loss: 0.4396517872810364
(Run 1) - Training Time: 226.5739 seconds

(Run 1) - Training completed.

------------------------------------------------------------------------------------------------------------------------------------------------------

(Run 0) - Training with parameters: Quantization Factor=100, Parameter Range=(-10, 10), Param Fraction=0.5, Max Iterations=10000, Target Loss=0.001

Model: Sequential(
  (0): Linear(in_features=1, out_features=4, bias=True)
  (1): ReLU()
  (2): Linear(in_features=4, out_features=4, bias=True)
  (3): ReLU()
  (4): Linear(in_features=4, out_features=1, bias=True)
  (5): Tanh()
)

(Run 0) - Best Loss: 0.4396837055683136
(Run 0) - Training Time: 441.3482 seconds

(Run 0) - Training completed.

------------------------------------------------------------------------------------------------------------------------------------------------------

(Run 1) - Training with parameters: Quantization Factor=100, Parameter Range=(-10, 10), Param Fraction=0.5, Max Iterations=10000, Target Loss=0.001

Model: Sequential(
  (0): Linear(in_features=1, out_features=4, bias=True)
  (1): ReLU()
  (2): Linear(in_features=4, out_features=4, bias=True)
  (3): ReLU()
  (4): Linear(in_features=4, out_features=1, bias=True)
  (5): Tanh()
)

(Run 1) - Best Loss: 0.4397003650665283
(Run 1) - Training Time: 444.8598 seconds

(Run 1) - Training completed.

------------------------------------------------------------------------------------------------------------------------------------------------------

(Run 0) - Training with parameters: Quantization Factor=100, Parameter Range=(-10, 10), Param Fraction=1.0, Max Iterations=1000, Target Loss=0.001

Model: Sequential(
  (0): Linear(in_features=1, out_features=4, bias=True)
  (1): ReLU()
  (2): Linear(in_features=4, out_features=4, bias=True)
  (3): ReLU()
  (4): Linear(in_features=4, out_features=1, bias=True)
  (5): Tanh()
)

(Run 0) - Best Loss: 0.5094814300537109
(Run 0) - Training Time: 88.1027 seconds

(Run 0) - Training completed.

------------------------------------------------------------------------------------------------------------------------------------------------------

(Run 1) - Training with parameters: Quantization Factor=100, Parameter Range=(-10, 10), Param Fraction=1.0, Max Iterations=1000, Target Loss=0.001

Model: Sequential(
  (0): Linear(in_features=1, out_features=4, bias=True)
  (1): ReLU()
  (2): Linear(in_features=4, out_features=4, bias=True)
  (3): ReLU()
  (4): Linear(in_features=4, out_features=1, bias=True)
  (5): Tanh()
)

(Run 1) - Best Loss: 0.5094814300537109
(Run 1) - Training Time: 86.5485 seconds

(Run 1) - Training completed.

------------------------------------------------------------------------------------------------------------------------------------------------------

(Run 0) - Training with parameters: Quantization Factor=100, Parameter Range=(-10, 10), Param Fraction=1.0, Max Iterations=5000, Target Loss=0.001

Model: Sequential(
  (0): Linear(in_features=1, out_features=4, bias=True)
  (1): ReLU()
  (2): Linear(in_features=4, out_features=4, bias=True)
  (3): ReLU()
  (4): Linear(in_features=4, out_features=1, bias=True)
  (5): Tanh()
)

(Run 0) - Best Loss: 0.4396550953388214
(Run 0) - Training Time: 436.1678 seconds

(Run 0) - Training completed.

------------------------------------------------------------------------------------------------------------------------------------------------------

(Run 1) - Training with parameters: Quantization Factor=100, Parameter Range=(-10, 10), Param Fraction=1.0, Max Iterations=5000, Target Loss=0.001

Model: Sequential(
  (0): Linear(in_features=1, out_features=4, bias=True)
  (1): ReLU()
  (2): Linear(in_features=4, out_features=4, bias=True)
  (3): ReLU()
  (4): Linear(in_features=4, out_features=1, bias=True)
  (5): Tanh()
)

(Run 1) - Best Loss: 0.4396550953388214
(Run 1) - Training Time: 435.5344 seconds

(Run 1) - Training completed.

------------------------------------------------------------------------------------------------------------------------------------------------------

(Run 0) - Training with parameters: Quantization Factor=100, Parameter Range=(-10, 10), Param Fraction=1.0, Max Iterations=10000, Target Loss=0.001

Model: Sequential(
  (0): Linear(in_features=1, out_features=4, bias=True)
  (1): ReLU()
  (2): Linear(in_features=4, out_features=4, bias=True)
  (3): ReLU()
  (4): Linear(in_features=4, out_features=1, bias=True)
  (5): Tanh()
)

(Run 0) - Best Loss: 0.43961620330810547
(Run 0) - Training Time: 864.1744 seconds

(Run 0) - Training completed.

------------------------------------------------------------------------------------------------------------------------------------------------------

(Run 1) - Training with parameters: Quantization Factor=100, Parameter Range=(-10, 10), Param Fraction=1.0, Max Iterations=10000, Target Loss=0.001

Model: Sequential(
  (0): Linear(in_features=1, out_features=4, bias=True)
  (1): ReLU()
  (2): Linear(in_features=4, out_features=4, bias=True)
  (3): ReLU()
  (4): Linear(in_features=4, out_features=1, bias=True)
  (5): Tanh()
)

(Run 1) - Best Loss: 0.43961620330810547
(Run 1) - Training Time: 874.3811 seconds

(Run 1) - Training completed.

------------------------------------------------------------------------------------------------------------------------------------------------------

(Run 0) - Training with parameters: Quantization Factor=1, Parameter Range=(-5, 5), Param Fraction=0.5, Max Iterations=1000, Target Loss=0.001

Model: Sequential(
  (0): Linear(in_features=1, out_features=8, bias=True)
  (1): ReLU()
  (2): Linear(in_features=8, out_features=8, bias=True)
  (3): ReLU()
  (4): Linear(in_features=8, out_features=1, bias=True)
  (5): Tanh()
)

(Run 0) - Best Loss: 0.39059191942214966
(Run 0) - Training Time: 129.6213 seconds

(Run 0) - Training completed.

------------------------------------------------------------------------------------------------------------------------------------------------------

(Run 1) - Training with parameters: Quantization Factor=1, Parameter Range=(-5, 5), Param Fraction=0.5, Max Iterations=1000, Target Loss=0.001

Model: Sequential(
  (0): Linear(in_features=1, out_features=8, bias=True)
  (1): ReLU()
  (2): Linear(in_features=8, out_features=8, bias=True)
  (3): ReLU()
  (4): Linear(in_features=8, out_features=1, bias=True)
  (5): Tanh()
)

(Run 1) - Best Loss: 0.39059191942214966
(Run 1) - Training Time: 124.8087 seconds

(Run 1) - Training completed.

------------------------------------------------------------------------------------------------------------------------------------------------------

(Run 0) - Training with parameters: Quantization Factor=1, Parameter Range=(-5, 5), Param Fraction=0.5, Max Iterations=5000, Target Loss=0.001

Model: Sequential(
  (0): Linear(in_features=1, out_features=8, bias=True)
  (1): ReLU()
  (2): Linear(in_features=8, out_features=8, bias=True)
  (3): ReLU()
  (4): Linear(in_features=8, out_features=1, bias=True)
  (5): Tanh()
)

(Run 0) - Best Loss: 0.418779581785202
(Run 0) - Training Time: 639.9875 seconds

(Run 0) - Training completed.

------------------------------------------------------------------------------------------------------------------------------------------------------

(Run 1) - Training with parameters: Quantization Factor=1, Parameter Range=(-5, 5), Param Fraction=0.5, Max Iterations=5000, Target Loss=0.001

Model: Sequential(
  (0): Linear(in_features=1, out_features=8, bias=True)
  (1): ReLU()
  (2): Linear(in_features=8, out_features=8, bias=True)
  (3): ReLU()
  (4): Linear(in_features=8, out_features=1, bias=True)
  (5): Tanh()
)

(Run 1) - Best Loss: 0.390616774559021
(Run 1) - Training Time: 627.4043 seconds

(Run 1) - Training completed.

------------------------------------------------------------------------------------------------------------------------------------------------------

(Run 0) - Training with parameters: Quantization Factor=1, Parameter Range=(-5, 5), Param Fraction=0.5, Max Iterations=10000, Target Loss=0.001

Model: Sequential(
  (0): Linear(in_features=1, out_features=8, bias=True)
  (1): ReLU()
  (2): Linear(in_features=8, out_features=8, bias=True)
  (3): ReLU()
  (4): Linear(in_features=8, out_features=1, bias=True)
  (5): Tanh()
)

